…
          "base_uri": "https://localhost:8080/"
        },
        "id": "t7zGL1F0xASX",
        "outputId": "61ebc1ba-1c5a-428f-e94f-c0c3d3cecb78"
      },
      "execution_count": 11,
      "outputs": [
        {
          "output_type": "stream",
          "name": "stdout",
          "text": [
            "Model: \"sequential\"\n",
            "_________________________________________________________________\n",
            " Layer (type)                Output Shape              Param #   \n",
            "=================================================================\n",
            " conv2d (Conv2D)             (None, 150, 150, 16)      448       \n",
            "                                                                 \n",
            " max_pooling2d (MaxPooling2D  (None, 75, 75, 16)       0         \n",
            " )                                                               \n",
            "                                                                 \n",
            " dropout (Dropout)           (None, 75, 75, 16)        0         \n",
            "                                                                 \n",
            " conv2d_1 (Conv2D)           (None, 75, 75, 32)        4640      \n",
            "                                                                 \n",
            " max_pooling2d_1 (MaxPooling  (None, 37, 37, 32)       0         \n",
            " 2D)                                                             \n",
            "                                                                 \n",
            " conv2d_2 (Conv2D)           (None, 37, 37, 32)        9248      \n",
            "                                                                 \n",
            " max_pooling2d_2 (MaxPooling  (None, 18, 18, 32)       0         \n",
            " 2D)                                                             \n",
            "                                                                 \n",
            " dropout_1 (Dropout)         (None, 18, 18, 32)        0         \n",
            "                                                                 \n",
            " flatten (Flatten)           (None, 10368)             0         \n",
            "                                                                 \n",
            " dense (Dense)               (None, 500)               5184500   \n",
            "                                                                 \n",
            " dropout_2 (Dropout)         (None, 500)               0         \n",
            "                                                                 \n",
            " dense_1 (Dense)             (None, 9)                 4509      \n",
            "                                                                 \n",
            "=================================================================\n",
            "Total params: 5,203,345\n",
            "Trainable params: 5,203,345\n",
            "Non-trainable params: 0\n",
            "_________________________________________________________________\n",
            "None\n"
…
